Namespace(base model='vgg', batch_size=16, cuda=True, data_dir='/workspace2/cth/VOCdevkit/VOC2012/', dataset='VOC2012', epoch=100, img_size=224, log_interval=20, lr=0.0002, name='PASCAL_ALPHA', num_class=20, save_interval=5, val_interval=5)
----------- Finished Dataset Preloading -----------
----- Finish Creating Patches ------
----------- Finished Dataset Preloading -----------
----- Finish Creating Patches ------
DPL(
  (cnn): VGG16(
    (layers): Sequential(
      (0): Conv2d(3, 64, kernel_size=(3, 3), stride=(1, 1), padding=(1, 1))
      (1): BatchNorm2d(64, eps=1e-05, momentum=0.1, affine=True)
      (2): ReLU(inplace)
      (3): Conv2d(64, 64, kernel_size=(3, 3), stride=(1, 1), padding=(1, 1))
      (4): BatchNorm2d(64, eps=1e-05, momentum=0.1, affine=True)
      (5): ReLU(inplace)
      (6): MaxPool2d(kernel_size=(2, 2), stride=(2, 2), dilation=(1, 1), ceil_mode=False)
      (7): Conv2d(64, 128, kernel_size=(3, 3), stride=(1, 1), padding=(1, 1))
      (8): BatchNorm2d(128, eps=1e-05, momentum=0.1, affine=True)
      (9): ReLU(inplace)
      (10): Conv2d(128, 128, kernel_size=(3, 3), stride=(1, 1), padding=(1, 1))
      (11): BatchNorm2d(128, eps=1e-05, momentum=0.1, affine=True)
      (12): ReLU(inplace)
      (13): MaxPool2d(kernel_size=(2, 2), stride=(2, 2), dilation=(1, 1), ceil_mode=False)
      (14): Conv2d(128, 256, kernel_size=(3, 3), stride=(1, 1), padding=(1, 1))
      (15): BatchNorm2d(256, eps=1e-05, momentum=0.1, affine=True)
      (16): ReLU(inplace)
      (17): Conv2d(256, 256, kernel_size=(3, 3), stride=(1, 1), padding=(1, 1))
      (18): BatchNorm2d(256, eps=1e-05, momentum=0.1, affine=True)
      (19): ReLU(inplace)
      (20): Conv2d(256, 256, kernel_size=(3, 3), stride=(1, 1), padding=(1, 1))
      (21): BatchNorm2d(256, eps=1e-05, momentum=0.1, affine=True)
      (22): ReLU(inplace)
      (23): MaxPool2d(kernel_size=(2, 2), stride=(2, 2), dilation=(1, 1), ceil_mode=False)
      (24): Conv2d(256, 512, kernel_size=(3, 3), stride=(1, 1), padding=(1, 1))
      (25): BatchNorm2d(512, eps=1e-05, momentum=0.1, affine=True)
      (26): ReLU(inplace)
      (27): Conv2d(512, 512, kernel_size=(3, 3), stride=(1, 1), padding=(1, 1))
      (28): BatchNorm2d(512, eps=1e-05, momentum=0.1, affine=True)
      (29): ReLU(inplace)
      (30): Conv2d(512, 512, kernel_size=(3, 3), stride=(1, 1), padding=(1, 1))
      (31): BatchNorm2d(512, eps=1e-05, momentum=0.1, affine=True)
      (32): ReLU(inplace)
      (33): MaxPool2d(kernel_size=(2, 2), stride=(2, 2), dilation=(1, 1), ceil_mode=False)
      (34): Conv2d(512, 512, kernel_size=(3, 3), stride=(1, 1), padding=(1, 1))
      (35): BatchNorm2d(512, eps=1e-05, momentum=0.1, affine=True)
      (36): ReLU(inplace)
      (37): Conv2d(512, 512, kernel_size=(3, 3), stride=(1, 1), padding=(1, 1))
      (38): BatchNorm2d(512, eps=1e-05, momentum=0.1, affine=True)
      (39): ReLU(inplace)
      (40): Conv2d(512, 512, kernel_size=(3, 3), stride=(1, 1), padding=(1, 1))
      (41): BatchNorm2d(512, eps=1e-05, momentum=0.1, affine=True)
      (42): ReLU(inplace)
    )
  )
  (roi_align): ROIAlign(
    (align): RoIAlign(
    )
  )
  (patch_pooling): PatchPooling(
  )
  (fcs): Sequential(
    (0): Linear(in_features=25088, out_features=4096, bias=True)
    (1): LeakyReLU(0.02, inplace)
    (2): Dropout(p=0.5)
    (3): Linear(in_features=4096, out_features=1024, bias=True)
    (4): LeakyReLU(0.02, inplace)
    (5): Dropout(p=0.5)
  )
  (out): Linear(in_features=1024, out_features=20, bias=True)
)
---------- DPL Model Init Finished -----------
starting to train
[0/100][19/358] Loss: 10.042668
[0/100][39/358] Loss: 7.872878
[0/100][59/358] Loss: 7.049260
[0/100][79/358] Loss: 6.538182
[0/100][99/358] Loss: 6.265519
[0/100][119/358] Loss: 6.105459
[0/100][139/358] Loss: 5.920916
[0/100][159/358] Loss: 5.816564
[0/100][179/358] Loss: 5.707836
[0/100][199/358] Loss: 5.625939
…
